…
d=42, shear=0.0, show=False, show_boxes=True, show_conf=True, show_labels=True, simplify=True, single_cls=False, source=None, split=val, stream_buffer=False, task=detect, time=None, tracker=botsort.yaml, translate=0.1, val=True, verbose=True, vid_stride=1, visualize=False, warmup_bias_lr=0.1, warmup_epochs=3.0, warmup_momentum=0.8, weight_decay=0.0005, workers=8, workspace=None\n","Overriding model.yaml nc=80 with nc=1\n","\n","                   from  n    params  module                                       arguments                     \n","  0                  -1  1      2784  ultralytics.nn.modules.conv.Conv             [3, 96, 3, 2]                 \n","  1                  -1  1    166272  ultralytics.nn.modules.conv.Conv             [96, 192, 3, 2]               \n","  2                  -1  2    389760  ultralytics.nn.modules.block.C3k2            [192, 384, 2, True, 0.25]     \n","  3                  -1  1   1327872  ultralytics.nn.modules.conv.Conv             [384, 384, 3, 2]              \n","  4                  -1  2   1553664  ultralytics.nn.modules.block.C3k2            [384, 768, 2, True, 0.25]     \n","  5                  -1  1   5309952  ultralytics.nn.modules.conv.Conv             [768, 768, 3, 2]              \n","  6                  -1  2   5022720  ultralytics.nn.modules.block.C3k2            [768, 768, 2, True]           \n","  7                  -1  1   5309952  ultralytics.nn.modules.conv.Conv             [768, 768, 3, 2]              \n","  8                  -1  2   5022720  ultralytics.nn.modules.block.C3k2            [768, 768, 2, True]           \n","  9                  -1  1   1476864  ultralytics.nn.modules.block.SPPF            [768, 768, 5]                 \n"," 10                  -1  2   3264768  ultralytics.nn.modules.block.C2PSA           [768, 768, 2]                 \n"," 11                  -1  1         0  torch.nn.modules.upsampling.Upsample         [None, 2, 'nearest']          \n"," 12             [-1, 6]  1         0  ultralytics.nn.modules.conv.Concat           [1]                           \n"," 13                  -1  2   5612544  ultralytics.nn.modules.block.C3k2            [1536, 768, 2, True]          \n"," 14                  -1  1         0  torch.nn.modules.upsampling.Upsample         [None, 2, 'nearest']          \n"," 15             [-1, 4]  1         0  ultralytics.nn.modules.conv.Concat           [1]                           \n"," 16                  -1  2   1700352  ultralytics.nn.modules.block.C3k2            [1536, 384, 2, True]          \n"," 17                  -1  1   1327872  ultralytics.nn.modules.conv.Conv             [384, 384, 3, 2]              \n"," 18            [-1, 13]  1         0  ultralytics.nn.modules.conv.Concat           [1]                           \n"," 19                  -1  2   5317632  ultralytics.nn.modules.block.C3k2            [1152, 768, 2, True]          \n"," 20                  -1  1   5309952  ultralytics.nn.modules.conv.Conv             [768, 768, 3, 2]              \n"," 21            [-1, 10]  1         0  ultralytics.nn.modules.conv.Concat           [1]                           \n"," 22                  -1  2   5612544  ultralytics.nn.modules.block.C3k2            [1536, 768, 2, True]          \n"," 23        [16, 19, 22]  1   3146707  ultralytics.nn.modules.head.Detect           [1, 16, None, [384, 768, 768]]\n","YOLO11x summary: 358 layers, 56,874,931 parameters, 56,874,915 gradients, 195.4 GFLOPs\n","\n","Transferred 1009/1015 items from pretrained weights\n","Freezing layer 'model.23.dfl.conv.weight'\n","\u001b[34m\u001b[1mAMP: \u001b[0mrunning Automatic Mixed Precision (AMP) checks...\n","\u001b[34m\u001b[1mAMP: \u001b[0mchecks passed ✅\n","\u001b[34m\u001b[1mtrain: \u
…
